…
    source: "/ssd/username/var_num/train_pos.list.sed"
    batch_size: 100
    shuffle: true
    new_height: 32
    new_width: 32
    is_color: false
    regression_num: 2
  }
}
layer {
  name: "neg_train_data"
  type: "ImageDataRegression"
  top: "neg_data"
  top: "neg_label"
  include {
    phase: TRAIN
  }
  transform_param {
    mirror: false
  }
  image_data_regression_param {
    source: "/ssd/username/var_num/train_neg.list.sed"
    batch_size: 100
    shuffle: true
    new_height: 32
    new_width: 32
    is_color: false
    regression_num: 1
  }
}
layer {
  name: "label_slice"
  type: "Slice"
  bottom: "pos_label"
  top: "cls_label"
  top: "char_label"
  include {
    phase: TRAIN
  }
  slice_param {
    slice_point: 1
    axis: 1
  }
}
layer {
  name: "label_concat"
  type: "Concat"
  bottom: "neg_label"
  bottom: "cls_label"
  top: "all_cls_label"
  include {
    phase: TRAIN
  }
  concat_param {
    concat_dim: 0
  }
}
layer {
  name: "data_concat"
  type: "Concat"
  bottom: "neg_data"
  bottom: "pos_data"
  top: "data"
  include {
    phase: TRAIN
  }
  concat_param {
    concat_dim: 0
  }
}
layer {
  name: "conv1"
  type: "Convolution"
  bottom: "data"
  top: "conv1"
  param {
    lr_mult: 1
    decay_mult: 1
  }
  param {
    lr_mult: 2
    decay_mult: 0
  }
  convolution_param {
    num_output: 32
    kernel_size: 9
    stride: 1
    weight_filler {
      type: "xavier"
    }
    bias_filler {
      type: "constant"
      value: 0.2
    }
  }
}
layer {
  name: "conv1_bn"
  type: "BN"
  bottom: "conv1"
  top: "conv1_bn"
  param {
    lr_mult: 1.00001
    decay_mult: 0
  }
  param {
    lr_mult: 1.00001
    decay_mult: 0
  }
  bn_param {
    scale_filler {
      type: "constant"
      value: 1
    }
    shift_filler {
      type: "constant"
      value: 0.001
    }
  }
}
layer {
  name: "relu1"
  type: "ReLU"
  bottom: "conv1_bn"
  top: "conv1_relu"
}
layer {
  name: "conv2"
  type: "Convolution"
  bottom: "conv1_relu"
  top: "conv2"
  param {
    lr_mult: 1
    decay_mult: 1
  }
  param {
    lr_mult: 2
    decay_mult: 0
  }
  convolution_param {
    num_output: 96
    kernel_size: 7
    stride: 1
    weight_filler {
      type: "xavier"
    }
    bias_filler {
      type: "constant"
      value: 0.2
    }
  }
}
layer {
  name: "conv2_bn"
  type: "BN"
  bottom: "conv2"
  top: "conv2_bn"
  param {
    lr_mult: 1.00001
    decay_mult: 0
  }
  param {
    lr_mult: 1.00001
    decay_mult: 0
  }
  bn_param {
    scale_filler {
      type: "constant"
      value: 1
    }
    shift_filler {
      type: "constant"
      value: 0.001
    }
  }
}
layer {
  name: "relu2"
  type: "ReLU"
  bottom: "conv2_bn"
  top: "conv2_relu"
}
layer {
  name: "pool1"
  type: "Pooling"
  bottom: "conv2_relu"
  top: "pool1"
  pooling_param {
    pool: MAX
    kernel_size: 3
    stride: 3
  }
}
layer {
  name: "conv3"
  type: "Convolution"
  bottom: "pool1"
  top: "conv3"
  param {
    lr_mult: 1
    decay_mult: 1
  }
  param {
    lr_mult: 2
    decay_mult: 0
  }
  convolution_param {
    num_output: 128
    kernel_size: 5
    stride: 1
    weight_filler {
      type: "xavier"
    }
    bias_filler {
      type: "constant"
      value: 0.2
    }
  }
}
layer {
  name: "conv3_bn"
  type: "BN"
  bottom: "conv3"
  top: "conv3_bn"
  param {
    lr_mult: 1.00001
    decay_mult: 0
  }
  param {
    lr_mult: 1.00001
    decay_mult: 0
  }
  bn_param {
    scale_filler {
      type: "constant"
      value: 1
    }
    shift_filler {
      type: "constant"
      value: 0.001
    }
  }
}
layer {
  name: "relu3"
  type: "ReLU"
  bottom: "conv3_bn"
  top: "conv3_relu"
}
layer {
  name: "fc1"
  type: "InnerProduct"
  bottom: "conv3_relu"
  top: "fc1"
  param {
    lr_mult: 1
    decay_mult: 1
  }
  param {
    lr_mult: 2
    decay_mult: 0
  }
  inner_product_param {
    num_output: 1024
    weight_filler {
      type: "gaussian"
      std: 0.001
    }
    bias_filler {
      type: "constant"
      value: 0
    }
  }
}
layer {
  name: "fc2"
  type: "InnerProduct"
  bottom: "fc1"
  top: "fc2"
  param {
    lr_mult: 1
    decay_mult: 1
  }
  param {
    lr_mult: 2
    decay_mult: 0
  }
  inner_product_param {
    num_output: 1024
    weight_filler {
      type: "gaussian"
      std: 0.001
    }
    bias_filler {
      type: "constant"
      value: 0
    }
  }
}
layer {
  name: "fc2_cls"
  type: "InnerProduct"
  bottom: "fc2"
  top: "fc2_cls"
  param {
    lr_mult: 1
    decay_mult: 1
  }
  param {
    lr_mult: 2
    decay_mult: 0
  }
  inner_product_param {
    num_output: 2
    weight_filler {
      type: "gaussian"
      std: 0.001
    }
    bias_filler {
      type: "constant"
      value: 0
    }
  }
}
layer {
  name: "loss_cls"
  type: "SoftmaxWithLoss"
  bottom: "fc2_cls"
  bottom: "all_cls_label"
  top: "loss_cls"
  loss_weight: 2
  include {
    phase: TRAIN
  }
}
layer {
  name: "acc_cls"
  type: "Accuracy"
  bottom: "fc2_cls"
  bottom: "all_cls_label"
  top: "acc_cls"
}
layer {
  name: "fea_slice"
  type: "Slice"
  bottom: "fc2"
  top: "fea1"
  top: "fea2"
  include {
    phase: TRAIN
  }
  slice_param {
    slice_point: 100
    axis: 0
  }
}
layer {
  name: "fea_silence"
  type: "Silence"
  bottom: "fea1"
  include {
    phase: TRAIN
  }
}
layer {
  name: "fc2_char"
  type: "InnerProduct"
  bottom: "fea2"
  top: "fc2_char"
  param {
    lr_mult: 1
    decay_mult: 1
  }
  param {
    lr_mult: 2
    decay_mult: 0
  }
  include {
    phase: TRAIN
  }
  inner_product_param {
    num_output: 10
    weight_filler {
      type: "gaussian"
      std: 0.001
    }
    bias_filler {
      type: "constant"
      value: 0
    }
  }
}
layer {
  name: "loss_char"
  type: "SoftmaxWithLoss"
  bottom: "fc2_char"
  bottom: "char_label"
  top: "loss_char"
  loss_weight: 1
  include {
    phase: TRAIN
  }
}
layer {
  name: "acc_char"
  type: "Accuracy"
  bottom: "fc2_char"
  bottom: "char_label"
  top: "acc_char"
  include {
    phase: TRAIN
  }
}
I0702 21:39:30.739228 21602 layer_factory.hpp:77] Creating layer pos_train_data
I0702 21:39:30.739308 21602 net.cpp:86] Creating Layer pos_train_data
I0702 21:39:30.739328 21602 net.cpp:382] pos_train_data -> pos_data
I0702 21:39:30.739377 21602 net.cpp:382] pos_train_data -> pos_label
I0702 21:39:30.739408 21602 image_data_regression.hpp:44] Opening file /ssd/username/var_num/train_pos.list.sed
I0702 21:39:30.851886 21602 image_data_regression.cpp:52] Shuffling data
I0702 21:39:30.863602 21602 image_data_regression.cpp:62] A total of 140000 images.
I0702 21:39:30.865413 21602 image_data_regression.cpp:93] output data size: 100,1,32,32
I0702 21:39:30.865453 21602 image_data_regression.cpp:101] top[1]->num_axes: 2
I0702 21:39:30.870810 21602 net.cpp:124] Setting up pos_train_data
I0702 21:39:30.870853 21602 net.cpp:131] Top shape: 100 1 32 32 (102400)
I0702 21:39:30.870863 21602 net.cpp:131] Top shape: 100 2 (200)
I0702 21:39:30.870870 21602 net.cpp:139] Memory required for data: 410400
I0702 21:39:30.870883 21602 layer_factory.hpp:77] Creating layer neg_train_data
I0702 21:39:30.870919 21602 net.cpp:86] Creating Layer neg_train_data
I0702 21:39:30.870951 21602 net.cpp:382] neg_train_data -> neg_data
I0702 21:39:30.870977 21602 net.cpp:382] neg_train_data -> neg_label
I0702 21:39:30.870995 21602 image_data_regression.hpp:44] Opening file /ssd/username/var_num/train_neg.list.sed
I0702 21:39:31.061308 21602 image_data_regression.cpp:52] Shuffling data
I0702 21:39:31.107862 21602 image_data_regression.cpp:62] A total of 232200 images.
I0702 21:39:31.108144 21602 image_data_regression.cpp:93] output data size: 100,1,32,32
I0702 21:39:31.108170 21602 image_data_regression.cpp:101] top[1]->num_axes: 2
I0702 21:39:31.148727 21602 net.cpp:124] Setting up neg_train_data
I0702 21:39:31.148826 21602 net.cpp:131] Top shape: 100 1 32 32 (102400)
I0702 21:39:31.148850 21602 net.cpp:131] Top shape: 100 1 (100)
I0702 21:39:31.148869 21602 net.cpp:139] Memory required for data: 820400
I0702 21:39:31.148890 21602 layer_factory.hpp:77] Creating layer label_slice
I0702 21:39:31.148944 21602 net.cpp:86] Creating Layer label_slice
I0702 21:39:31.148974 21602 net.cpp:408] label_slice <- pos_label
I0702 21:39:31.149009 21602 net.cpp:382] label_slice -> cls_label
I0702 21:39:31.149044 21602 net.cpp:382] label_slice -> char_label
I0702 21:39:31.149159 21602 net.cpp:124] Setting up label_slice
I0702 21:39:31.149185 21602 net.cpp:131] Top shape: 100 1 (100)
I0702 21:39:31.149205 21602 net.cpp:131] Top shape: 100 1 (100)
I0702 21:39:31.149224 21602 net.cpp:139] Memory required for data: 821200
I0702 21:39:31.149242 21602 layer_factory.hpp:77] Creating layer char_label_label_slice_1_split
I0702 21:39:31.149266 21602 net.cpp:86] Creating Layer char_label_label_slice_1_split
I0702 21:39:31.149283 21602 net.cpp:408] char_label_label_slice_1_split <- char_label
I0702 21:39:31.149307 21602 net.cpp:382] char_label_label_slice_1_split -> char_label_label_slice_1_split_0
I0702 21:39:31.149330 21602 net.cpp:382] char_label_label_slice_1_split -> char_label_label_slice_1_split_1
I0702 21:39:31.149405 21602 net.cpp:124] Setting up char_label_label_slice_1_split
I0702 21:39:31.149431 21602 net.cpp:131] Top shape: 100 1 (100)
I0702 21:39:31.149451 21602 net.cpp:131] Top shape: 100 1 (100)
I0702 21:39:31.149467 21602 net.cpp:139] Memory required for data: 822000
I0702 21:39:31.149484 21602 layer_factory.hpp:77] Creating layer label_concat
I0702 21:39:31.149518 21602 net.cpp:86] Creating Layer label_concat
I0702 21:39:31.149538 21602 net.cpp:408] label_concat <- neg_label
I0702 21:39:31.149556 21602 net.cpp:408] label_concat <- cls_label
I0702 21:39:31.149580 21602 net.cpp:382] label_concat -> all_cls_label
I0702 21:39:31.149633 21602 net.cpp:124] Setting up label_concat
I0702 21:39:31.149660 21602 net.cpp:131] Top shape: 200 1 (200)
I0702 21:39:31.149678 21602 net.cpp:139] Memory required for data: 822800
I0702 21:39:31.149695 21602 layer_factory.hpp:77] Creating layer all_cls_label_label_concat_0_split
I0702 21:39:31.149718 21602 net.cpp:86] Creating Layer all_cls_label_label_concat_0_split
I0702 21:39:31.149737 21602 net.cpp:408] all_cls_label_label_concat_0_split <- all_cls_label
I0702 21:39:31.149760 21602 net.cpp:382] all_cls_label_label_concat_0_split -> all_cls_label_label_concat_0_split_0
I0702 21:39:31.149783 21602 net.cpp:382] all_cls_label_label_concat_0_split -> all_cls_label_label_concat_0_split_1
I0702 21:39:31.149853 21602 net.cpp:124] Setting up all_cls_label_label_concat_0_split
I0702 21:39:31.149879 21602 net.cpp:131] Top shape: 200 1 (200)
I0702 21:39:31.149899 21602 net.cpp:131] Top shape: 200 1 (200)
I0702 21:39:31.149919 21602 net.cpp:139] Memory required for data: 824400
I0702 21:39:31.149937 21602 layer_factory.hpp:77] Creating layer data_concat
I0702 21:39:31.149962 21602 net.cpp:86] Creating Layer data_concat
I0702 21:39:31.149982 21602 net.cpp:408] data_concat <- neg_data
I0702 21:39:31.150001 21602 net.cpp:408] data_concat <- pos_data
I0702 21:39:31.150024 21602 net.cpp:382] data_concat -> data
I0702 21:39:31.150074 21602 net.cpp:124] Setting up data_concat
I0702 21:39:31.150097 21602 net.cpp:131] Top shape: 200 1 32 32 (204800)
I0702 21:39:31.150130 21602 net.cpp:139] Memory required for data: 1643600
I0702 21:39:31.150162 21602 layer_factory.hpp:77] Creating layer conv1
I0702 21:39:31.150252 21602 net.cpp:86] Creating Layer conv1
I0702 21:39:31.150272 21602 net.cpp:408] conv1 <- data
I0702 21:39:31.150292 21602 net.cpp:382] conv1 -> conv1
I0702 21:39:34.328249 21602 net.cpp:124] Setting up conv1
I0702 21:39:34.328346 21602 net.cpp:131] Top shape: 200 32 24 24 (3686400)
I0702 21:39:34.328357 21602 net.cpp:139] Memory required for data: 16389200
I0702 21:39:34.328392 21602 layer_factory.hpp:77] Creating layer conv1_bn
I0702 21:39:34.328428 21602 net.cpp:86] Creating Layer conv1_bn
I0702 21:39:34.328442 21602 net.cpp:408] conv1_bn <- conv1
I0702 21:39:34.328459 21602 net.cpp:382] conv1_bn -> conv1_bn
I0702 21:39:34.328871 21602 net.cpp:124] Setting up conv1_bn
I0702 21:39:34.328886 21602 net.cpp:131] Top shape: 200 32 24 24 (3686400)
I0702 21:39:34.328893 21602 net.cpp:139] Memory required for data: 31134800
I0702 21:39:34.328919 21602 layer_factory.hpp:77] Creating layer relu1
I0702 21:39:34.328938 21602 net.cpp:86] Creating Layer relu1
I0702 21:39:34.328948 21602 net.cpp:408] relu1 <- conv1_bn
I0702 21:39:34.328958 21602 net.cpp:382] relu1 -> conv1_relu
I0702 21:39:34.329587 21602 net.cpp:124] Setting up relu1
I0702 21:39:34.329605 21602 net.cpp:131] Top shape: 200 32 24 24 (3686400)
I0702 21:39:34.329609 21602 net.cpp:139] Memory required for data: 45880400
I0702 21:39:34.329614 21602 layer_factory.hpp:77] Creating layer conv2
I0702 21:39:34.329629 21602 net.cpp:86] Creating Layer conv2
I0702 21:39:34.329638 21602 net.cpp:408] conv2 <- conv1_relu
I0702 21:39:34.329648 21602 net.cpp:382] conv2 -> conv2
I0702 21:39:34.332868 21602 net.cpp:124] Setting up conv2
I0702 21:39:34.332886 21602 net.cpp:131] Top shape: 200 96 18 18 (6220800)
I0702 21:39:34.332891 21602 net.cpp:139] Memory required for data: 70763600
I0702 21:39:34.332898 21602 layer_factory.hpp:77] Creating layer conv2_bn
I0702 21:39:34.332919 21602 net.cpp:86] Creating Layer conv2_bn
I0702 21:39:34.332924 21602 net.cpp:408] conv2_bn <- conv2
I0702 21:39:34.332932 21602 net.cpp:382] conv2_bn -> conv2_bn
I0702 21:39:34.333407 21602 net.cpp:124] Setting up conv2_bn
I0702 21:39:34.333429 21602 net.cpp:131] Top shape: 200 96 18 18 (6220800)
I0702 21:39:34.333439 21602 net.cpp:139] Memory required for data: 95646800
I0702 21:39:34.333461 21602 layer_factory.hpp:77] Creating layer relu2
I0702 21:39:34.333475 21602 net.cpp:86] Creating Layer relu2
I0702 21:39:34.333484 21602 net.cpp:408] relu2 <- conv2_bn
I0702 21:39:34.333497 21602 net.cpp:382] relu2 -> conv2_relu
I0702 21:39:34.333917 21602 net.cpp:124] Setting up relu2
I0702 21:39:34.333938 21602 net.cpp:131] Top shape: 200 96 18 18 (6220800)
I0702 21:39:34.333947 21602 net.cpp:139] Memory required for data: 120530000
I0702 21:39:34.333956 21602 layer_factory.hpp:77] Creating layer pool1
I0702 21:39:34.333976 21602 net.cpp:86] Creating Layer pool1
I0702 21:39:34.333986 21602 net.cpp:408] pool1 <- conv2_relu
I0702 21:39:34.334002 21602 net.cpp:382] pool1 -> pool1
I0702 21:39:34.334095 21602 net.cpp:124] Setting up pool1
I0702 21:39:34.334111 21602 net.cpp:131] Top shape: 200 96 6 6 (691200)
I0702 21:39:34.334120 21602 net.cpp:139] Memory required for data: 123294800
I0702 21:39:34.334128 21602 layer_factory.hpp:77] Creating layer conv3
I0702 21:39:34.334151 21602 net.cpp:86] Creating Layer conv3
I0702 21:39:34.334161 21602 net.cpp:408] conv3 <- pool1
I0702 21:39:34.334173 21602 net.cpp:382] conv3 -> conv3
I0702 21:39:34.426410 21602 net.cpp:124] Setting up conv3
I0702 21:39:34.426482 21602 net.cpp:131] Top shape: 200 128 2 2 (102400)
I0702 21:39:34.426504 21602 net.cpp:139] Memory required for data: 123704400
I0702 21:39:34.426535 21602 layer_factory.hpp:77] Creating layer conv3_bn
I0702 21:39:34.426566 21602 net.cpp:86] Creating Layer conv3_bn
I0702 21:39:34.426586 21602 net.cpp:408] conv3_bn <- conv3
I0702 21:39:34.426611 21602 net.cpp:382] conv3_bn -> conv3_bn
I0702 21:39:34.427027 21602 net.cpp:124] Setting up conv3_bn
I0702 21:39:34.427076 21602 net.cpp:131] Top shape: 200 128 2 2 (102400)
I0702 21:39:34.427109 21602 net.cpp:139] Memory required for data: 124114000
I0702 21:39:34.427142 21602 layer_factory.hpp:77] Creating layer relu3
I0702 21:39:34.427170 21602 net.cpp:86] Creating Layer relu3
I0702 21:39:34.427186 21602 net.cpp:408] relu3 <- conv3_bn
I0702 21:39:34.427206 21602 net.cpp:382] relu3 -> conv3_relu
I0702 21:39:34.433745 21602 net.cpp:124] Setting up relu3
I0702 21:39:34.433786 21602 net.cpp:131] Top shape: 200 128 2 2 (102400)
I0702 21:39:34.433809 21602 net.cpp:139] Memory required for data: 124523600
I0702 21:39:34.433828 21602 layer_factory.hpp:77] Creating layer fc1
I0702 21:39:34.433857 21602 net.cpp:86] Creating Layer fc1
I0702 21:39:34.433878 21602 net.cpp:408] fc1 <- conv3_relu
I0702 21:39:34.433899 21602 net.cpp:382] fc1 -> fc1
I0702 21:39:34.459936 21602 net.cpp:124] Setting up fc1
I0702 21:39:34.459964 21602 net.cpp:131] Top shape: 200 1024 (204800)
I0702 21:39:34.459970 21602 net.cpp:139] Memory required for data: 125342800
I0702 21:39:34.459985 21602 layer_factory.hpp:77] Creating layer fc2
I0702 21:39:34.460000 21602 net.cpp:86] Creating Layer fc2
I0702 21:39:34.460009 21602 net.cpp:408] fc2 <- fc1
I0702 21:39:34.460021 21602 net.cpp:382] fc2 -> fc2
I0702 21:39:34.511355 21602 net.cpp:124] Setting up fc2
I0702 21:39:34.511415 21602 net.cpp:131] Top shape: 200 1024 (204800)
I0702 21:39:34.511433 21602 net.cpp:139] Memory required for data: 126162000
I0702 21:39:34.511457 21602 layer_factory.hpp:77] Creating layer fc2_fc2_0_split
I0702 21:39:34.511485 21602 net.cpp:86] Creating Layer fc2_fc2_0_split
I0702 21:39:34.511504 21602 net.cpp:408] fc2_fc2_0_split <- fc2
I0702 21:39:34.511526 21602 net.cpp:382] fc2_fc2_0_split -> fc2_fc2_0_split_0
I0702 21:39:34.511549 21602 net.cpp:382] fc2_fc2_0_split -> fc2_fc2_0_split_1
I0702 21:39:34.511636 21602 net.cpp:124] Setting up fc2_fc2_0_split
I0702 21:39:34.511662 21602 net.cpp:131] Top shape: 200 1024 (204800)
I0702 21:39:34.511679 21602 net.cpp:131] Top shape: 200 1024 (204800)
I0702 21:39:34.511694 21602 net.cpp:139] Memory required for data: 127800400
I0702 21:39:34.511709 21602 layer_factory.hpp:77] Creating layer fc2_cls
I0702 21:39:34.511734 21602 net.cpp:86] Creating Layer fc2_cls
I0702 21:39:34.511751 21602 net.cpp:408] fc2_cls <- fc2_fc2_0_split_0
I0702 21:39:34.511772 21602 net.cpp:382] fc2_cls -> fc2_cls
I0702 21:39:34.512085 21602 net.cpp:124] Setting up fc2_cls
I0702 21:39:34.512114 21602 net.cpp:131] Top shape: 200 2 (400)
I0702 21:39:34.512130 21602 net.cpp:139] Memory required for data: 127802000
I0702 21:39:34.512148 21602 layer_factory.hpp:77] Creating layer fc2_cls_fc2_cls_0_split
I0702 21:39:34.512168 21602 net.cpp:86] Creating Layer fc2_cls_fc2_cls_0_split
I0702 21:39:34.512184 21602 net.cpp:408] fc2_cls_fc2_cls_0_split <- fc2_cls
I0702 21:39:34.512207 21602 net.cpp:382] fc2_cls_fc2_cls_0_split -> fc2_cls_fc2_cls_0_split_0
I0702 21:39:34.512228 21602 net.cpp:382] fc2_cls_fc2_cls_0_split -> fc2_cls_fc2_cls_0_split_1
I0702 21:39:34.512308 21602 net.cpp:124] Setting up fc2_cls_fc2_cls_0_split
I0702 21:39:34.512336 21602 net.cpp:131] Top shape: 200 2 (400)
I0702 21:39:34.512354 21602 net.cpp:131] Top shape: 200 2 (400)
I0702 21:39:34.512369 21602 net.cpp:139] Memory required for data: 127805200
I0702 21:39:34.512384 21602 layer_factory.hpp:77] Creating layer loss_cls
I0702 21:39:34.512405 21602 net.cpp:86] Creating Layer loss_cls
I0702 21:39:34.512423 21602 net.cpp:408] loss_cls <- fc2_cls_fc2_cls_0_split_0
I0702 21:39:34.512439 21602 net.cpp:408] loss_cls <- all_cls_label_label_concat_0_split_0
I0702 21:39:34.512459 21602 net.cpp:382] loss_cls -> loss_cls
…
I0702 21:39:34.517609 21602 net.cpp:124] Setting up acc_cls
I0702 21:39:34.517628 21602 net.cpp:131] Top shape: (1)
I0702 21:39:34.517643 21602 net.cpp:139] Memory required for data: 127805208
I0702 21:39:34.517659 21602 layer_factory.hpp:77] Creating layer fea_slice
I0702 21:39:34.517683 21602 net.cpp:86] Creating Layer fea_slice
I0702 21:39:34.517699 21602 net.cpp:408] fea_slice <- fc2_fc2_0_split_1
I0702 21:39:34.517721 21602 net.cpp:382] fea_slice -> fea1
I0702 21:39:34.517743 21602 net.cpp:382] fea_slice -> fea2
I0702 21:39:34.517839 21602 net.cpp:124] Setting up fea_slice
I0702 21:39:34.517864 21602 net.cpp:131] Top shape: 100 1024 (102400)
I0702 21:39:34.517882 21602 net.cpp:131] Top shape: 100 1024 (102400)
I0702 21:39:34.517897 21602 net.cpp:139] Memory required for data: 128624408
I0702 21:39:34.517912 21602 layer_factory.hpp:77] Creating layer fea_silence
I0702 21:39:34.517931 21602 net.cpp:86] Creating Layer fea_silence
I0702 21:39:34.517947 21602 net.cpp:408] fea_silence <- fea1
I0702 21:39:34.517964 21602 net.cpp:124] Setting up fea_silence
I0702 21:39:34.517979 21602 net.cpp:139] Memory required for data: 128624408
I0702 21:39:34.517994 21602 layer_factory.hpp:77] Creating layer fc2_char
I0702 21:39:34.518018 21602 net.cpp:86] Creating Layer fc2_char
I0702 21:39:34.518035 21602 net.cpp:408] fc2_char <- fea2
I0702 21:39:34.518057 21602 net.cpp:382] fc2_char -> fc2_char
I0702 21:39:34.519726 21602 net.cpp:124] Setting up fc2_char
I0702 21:39:34.519762 21602 net.cpp:131] Top shape: 100 10 (1000)
I0702 21:39:34.519778 21602 net.cpp:139] Memory required for data: 128628408
I0702 21:39:34.519800 21602 layer_factory.hpp:77] Creating layer fc2_char_fc2_char_0_split
I0702 21:39:34.519820 21602 net.cpp:86] Creating Layer fc2_char_fc2_char_0_split
I0702 21:39:34.519837 21602 net.cpp:408] fc2_char_fc2_char_0_split <- fc2_char
I0702 21:39:34.519860 21602 net.cpp:382] fc2_char_fc2_char_0_split -> fc2_char_fc2_char_0_split_0
I0702 21:39:34.519882 21602 net.cpp:382] fc2_char_fc2_char_0_split -> fc2_char_fc2_char_0_split_1
I0702 21:39:34.519976 21602 net.cpp:124] Setting up fc2_char_fc2_char_0_split
I0702 21:39:34.520001 21602 net.cpp:131] Top shape: 100 10 (1000)
I0702 21:39:34.520018 21602 net.cpp:131] Top shape: 100 10 (1000)
I0702 21:39:34.520035 21602 net.cpp:139] Memory required for data: 128636408
I0702 21:39:34.520050 21602 layer_factory.hpp:77] Creating layer loss_char
I0702 21:39:34.520071 21602 net.cpp:86] Creating Layer loss_char
I0702 21:39:34.520087 21602 net.cpp:408] loss_char <- fc2_char_fc2_char_0_split_0
I0702 21:39:34.520104 21602 net.cpp:408] loss_char <- char_label_label_slice_1_split_0
I0702 21:39:34.520123 21602 net.cpp:382] loss_char -> loss_char
…
I0702 21:39:34.557480 21602 net.cpp:296] The NetState phase (1) differed from the phase (0) specified by a rule in layer acc_char
I0702 21:39:34.557725 21602 net.cpp:53] Initializing net from parameters: 
name: "NumNet"
state {
  phase: TEST
}
layer {
  name: "test_data"
  type: "ImageDataRegression"
  top: "data"
  top: "all_cls_label"
  include {
    phase: TEST
  }
  transform_param {
    mirror: false
  }
  image_data_regression_param {
    source: "/home/username/forward/real_test.list"
    batch_size: 28
    shuffle: true
    new_height: 32
    new_width: 32
    is_color: false
    regression_num: 1
  }
}
layer {
  name: "conv1"
  type: "Convolution"
  bottom: "data"
  top: "conv1"
  param {
    lr_mult: 1
    decay_mult: 1
  }
  param {
    lr_mult: 2
    decay_mult: 0
  }
  convolution_param {
    num_output: 32
    kernel_size: 9
    stride: 1
    weight_filler {
      type: "xavier"
    }
    bias_filler {
      type: "constant"
      value: 0.2
    }
  }
}
layer {
  name: "conv1_bn"
  type: "BN"
  bottom: "conv1"
  top: "conv1_bn"
  param {
    lr_mult: 1.00001
    decay_mult: 0
  }
  param {
    lr_mult: 1.00001
    decay_mult: 0
  }
  bn_param {
    scale_filler {
      type: "constant"
      value: 1
    }
    shift_filler {
      type: "constant"
      value: 0.001
    }
  }
}
layer {
  name: "relu1"
  type: "ReLU"
  bottom: "conv1_bn"
  top: "conv1_relu"
}
layer {
  name: "conv2"
  type: "Convolution"
  bottom: "conv1_relu"
  top: "conv2"
  param {
    lr_mult: 1
    decay_mult: 1
  }
  param {
    lr_mult: 2
    decay_mult: 0
  }
  convolution_param {
    num_output: 96
    kernel_size: 7
    stride: 1
    weight_filler {
      type: "xavier"
    }
    bias_filler {
      type: "constant"
      value: 0.2
    }
  }
}
layer {
  name: "conv2_bn"
  type: "BN"
  bottom: "conv2"
  top: "conv2_bn"
  param {
    lr_mult: 1.00001
    decay_mult: 0
  }
  param {
    lr_mult: 1.00001
    decay_mult: 0
  }
  bn_param {
    scale_filler {
      type: "constant"
      value: 1
    }
    shift_filler {
      type: "constant"
      value: 0.001
    }
  }
}
layer {
  name: "relu2"
  type: "ReLU"
  bottom: "conv2_bn"
  top: "conv2_relu"
}
layer {
  name: "pool1"
  type: "Pooling"
  bottom: "conv2_relu"
  top: "pool1"
  pooling_param {
    pool: MAX
    kernel_size: 3
    stride: 3
  }
}
layer {
  name: "conv3"
  type: "Convolution"
  bottom: "pool1"
  top: "conv3"
  param {
    lr_mult: 1
    decay_mult: 1
  }
  param {
    lr_mult: 2
    decay_mult: 0
  }
  convolution_param {
    num_output: 128
    kernel_size: 5
    stride: 1
    weight_filler {
      type: "xavier"
    }
    bias_filler {
      type: "constant"
      value: 0.2
    }
  }
}
layer {
  name: "conv3_bn"
  type: "BN"
  bottom: "conv3"
  top: "conv3_bn"
  param {
    lr_mult: 1.00001
    decay_mult: 0
  }
  param {
    lr_mult: 1.00001
    decay_mult: 0
  }
  bn_param {
    scale_filler {
      type: "constant"
      value: 1
    }
    shift_filler {
      type: "constant"
      value: 0.001
    }
  }
}
layer {
  name: "relu3"
  type: "ReLU"
  bottom: "conv3_bn"
  top: "conv3_relu"
}
layer {
  name: "fc1"
  type: "InnerProduct"
  bottom: "conv3_relu"
  top: "fc1"
  param {
    lr_mult: 1
    decay_mult: 1
  }
  param {
    lr_mult: 2
    decay_mult: 0
  }
  inner_product_param {
    num_output: 1024
    weight_filler {
      type: "gaussian"
      std: 0.001
    }
    bias_filler {
      type: "constant"
      value: 0
    }
  }
}
layer {
  name: "fc2"
  type: "InnerProduct"
  bottom: "fc1"
  top: "fc2"
  param {
    lr_mult: 1
    decay_mult: 1
  }
  param {
    lr_mult: 2
    decay_mult: 0
  }
  inner_product_param {
    num_output: 1024
    weight_filler {
      type: "gaussian"
      std: 0.001
    }
    bias_filler {
      type: "constant"
      value: 0
    }
  }
}
layer {
  name: "fc2_cls"
  type: "InnerProduct"
  bottom: "fc2"
  top: "fc2_cls"
  param {
    lr_mult: 1
    decay_mult: 1
  }
  param {
    lr_mult: 2
    decay_mult: 0
  }
  inner_product_param {
    num_output: 2
    weight_filler {
      type: "gaussian"
      std: 0.001
    }
    bias_filler {
      type: "constant"
      value: 0
    }
  }
}
layer {
  name: "acc_cls"
  type: "Accuracy"
  bottom: "fc2_cls"
  bottom: "all_cls_label"
  top: "acc_cls"
}
I0702 21:39:34.557853 21602 layer_factory.hpp:77] Creating layer test_data
I0702 21:39:34.557890 21602 net.cpp:86] Creating Layer test_data
I0702 21:39:34.557909 21602 net.cpp:382] test_data -> data
I0702 21:39:34.557932 21602 net.cpp:382] test_data -> all_cls_label
I0702 21:39:34.557957 21602 image_data_regression.hpp:44] Opening file /home/username/forward/real_test.list
I0702 21:39:34.558426 21602 image_data_regression.cpp:52] Shuffling data
I0702 21:39:34.558473 21602 image_data_regression.cpp:62] A total of 560 images.
I0702 21:39:34.558756 21602 image_data_regression.cpp:93] output data size: 28,1,32,32
I0702 21:39:34.558817 21602 image_data_regression.cpp:101] top[1]->num_axes: 2
I0702 21:39:34.635254 21602 net.cpp:124] Setting up test_data
I0702 21:39:34.635282 21602 net.cpp:131] Top shape: 28 1 32 32 (28672)
I0702 21:39:34.635293 21602 net.cpp:131] Top shape: 28 1 (28)
I0702 21:39:34.635300 21602 net.cpp:139] Memory required for data: 114800
I0702 21:39:34.635308 21602 layer_factory.hpp:77] Creating layer conv1
I0702 21:39:34.635352 21602 net.cpp:86] Creating Layer conv1
I0702 21:39:34.635366 21602 net.cpp:408] conv1 <- data
I0702 21:39:34.635383 21602 net.cpp:382] conv1 -> conv1
I0702 21:39:34.637675 21602 net.cpp:124] Setting up conv1
I0702 21:39:34.637696 21602 net.cpp:131] Top shape: 28 32 24 24 (516096)
I0702 21:39:34.637704 21602 net.cpp:139] Memory required for data: 2179184
I0702 21:39:34.637722 21602 layer_factory.hpp:77] Creating layer conv1_bn
I0702 21:39:34.637742 21602 net.cpp:86] Creating Layer conv1_bn
I0702 21:39:34.637750 21602 net.cpp:408] conv1_bn <- conv1
I0702 21:39:34.637763 21602 net.cpp:382] conv1_bn -> conv1_bn
I0702 21:39:34.638083 21602 net.cpp:124] Setting up conv1_bn
I0702 21:39:34.638098 21602 net.cpp:131] Top shape: 28 32 24 24 (516096)
I0702 21:39:34.638104 21602 net.cpp:139] Memory required for data: 4243568
I0702 21:39:34.638123 21602 layer_factory.hpp:77] Creating layer relu1
I0702 21:39:34.638134 21602 net.cpp:86] Creating Layer relu1
I0702 21:39:34.638159 21602 net.cpp:408] relu1 <- conv1_bn
I0702 21:39:34.638176 21602 net.cpp:382] relu1 -> conv1_relu
I0702 21:39:34.638769 21602 net.cpp:124] Setting up relu1
I0702 21:39:34.638808 21602 net.cpp:131] Top shape: 28 32 24 24 (516096)
I0702 21:39:34.638815 21602 net.cpp:139] Memory required for data: 6307952
I0702 21:39:34.638823 21602 layer_factory.hpp:77] Creating layer conv2
I0702 21:39:34.638849 21602 net.cpp:86] Creating Layer conv2
I0702 21:39:34.638860 21602 net.cpp:408] conv2 <- conv1_relu
I0702 21:39:34.638872 21602 net.cpp:382] conv2 -> conv2
I0702 21:39:34.724547 21602 net.cpp:124] Setting up conv2
I0702 21:39:34.724587 21602 net.cpp:131] Top shape: 28 96 18 18 (870912)
I0702 21:39:34.724606 21602 net.cpp:139] Memory required for data: 9791600
I0702 21:39:34.724622 21602 layer_factory.hpp:77] Creating layer conv2_bn
I0702 21:39:34.724638 21602 net.cpp:86] Creating Layer conv2_bn
I0702 21:39:34.724649 21602 net.cpp:408] conv2_bn <- conv2
I0702 21:39:34.724674 21602 net.cpp:382] conv2_bn -> conv2_bn
I0702 21:39:34.730576 21602 net.cpp:124] Setting up conv2_bn
I0702 21:39:34.730600 21602 net.cpp:131] Top shape: 28 96 18 18 (870912)
I0702 21:39:34.730607 21602 net.cpp:139] Memory required for data: 13275248
I0702 21:39:34.730628 21602 layer_factory.hpp:77] Creating layer relu2
I0702 21:39:34.730661 21602 net.cpp:86] Creating Layer relu2
I0702 21:39:34.730672 21602 net.cpp:408] relu2 <- conv2_bn
I0702 21:39:34.730685 21602 net.cpp:382] relu2 -> conv2_relu
I0702 21:39:34.731132 21602 net.cpp:124] Setting up relu2
I0702 21:39:34.731153 21602 net.cpp:131] Top shape: 28 96 18 18 (870912)
I0702 21:39:34.731163 21602 net.cpp:139] Memory required for data: 16758896
I0702 21:39:34.731170 21602 layer_factory.hpp:77] Creating layer pool1
I0702 21:39:34.731184 21602 net.cpp:86] Creating Layer pool1
I0702 21:39:34.731191 21602 net.cpp:408] pool1 <- conv2_relu
I0702 21:39:34.731204 21602 net.cpp:382] pool1 -> pool1
I0702 21:39:34.731310 21602 net.cpp:124] Setting up pool1
I0702 21:39:34.731325 21602 net.cpp:131] Top shape: 28 96 6 6 (96768)
I0702 21:39:34.731333 21602 net.cpp:139] Memory required for data: 17145968
I0702 21:39:34.731339 21602 layer_factory.hpp:77] Creating layer conv3
I0702 21:39:34.731364 21602 net.cpp:86] Creating Layer conv3
I0702 21:39:34.731372 21602 net.cpp:408] conv3 <- pool1
I0702 21:39:34.731385 21602 net.cpp:382] conv3 -> conv3
I0702 21:39:34.852164 21602 net.cpp:124] Setting up conv3
I0702 21:39:34.852196 21602 net.cpp:131] Top shape: 28 128 2 2 (14336)
I0702 21:39:34.852203 21602 net.cpp:139] Memory required for data: 17203312
I0702 21:39:34.852217 21602 layer_factory.hpp:77] Creating layer conv3_bn
I0702 21:39:34.852238 21602 net.cpp:86] Creating Layer conv3_bn
I0702 21:39:34.852248 21602 net.cpp:408] conv3_bn <- conv3
I0702 21:39:34.852277 21602 net.cpp:382] conv3_bn -> conv3_bn
I0702 21:39:34.852638 21602 net.cpp:124] Setting up conv3_bn
I0702 21:39:34.852669 21602 net.cpp:131] Top shape: 28 128 2 2 (14336)
I0702 21:39:34.852677 21602 net.cpp:139] Memory required for data: 17260656
I0702 21:39:34.852700 21602 layer_factory.hpp:77] Creating layer relu3
I0702 21:39:34.852712 21602 net.cpp:86] Creating Layer relu3
I0702 21:39:34.852720 21602 net.cpp:408] relu3 <- conv3_bn
I0702 21:39:34.852730 21602 net.cpp:382] relu3 -> conv3_relu
I0702 21:39:34.853353 21602 net.cpp:124] Setting up relu3
I0702 21:39:34.853374 21602 net.cpp:131] Top shape: 28 128 2 2 (14336)
I0702 21:39:34.853380 21602 net.cpp:139] Memory required for data: 17318000
I0702 21:39:34.853401 21602 layer_factory.hpp:77] Creating layer fc1
I0702 21:39:34.853420 21602 net.cpp:86] Creating Layer fc1
I0702 21:39:34.853427 21602 net.cpp:408] fc1 <- conv3_relu
I0702 21:39:34.853440 21602 net.cpp:382] fc1 -> fc1
I0702 21:39:34.873204 21602 net.cpp:124] Setting up fc1
I0702 21:39:34.873225 21602 net.cpp:131] Top shape: 28 1024 (28672)
I0702 21:39:34.873232 21602 net.cpp:139] Memory required for data: 17432688
I0702 21:39:34.873244 21602 layer_factory.hpp:77] Creating layer fc2
I0702 21:39:34.873260 21602 net.cpp:86] Creating Layer fc2
I0702 21:39:34.873268 21602 net.cpp:408] fc2 <- fc1
I0702 21:39:34.873281 21602 net.cpp:382] fc2 -> fc2
I0702 21:39:34.914942 21602 net.cpp:124] Setting up fc2
I0702 21:39:34.914986 21602 net.cpp:131] Top shape: 28 1024 (28672)
I0702 21:39:34.915004 21602 net.cpp:139] Memory required for data: 17547376
I0702 21:39:34.915026 21602 layer_factory.hpp:77] Creating layer fc2_cls
I0702 21:39:34.915052 21602 net.cpp:86] Creating Layer fc2_cls
I0702 21:39:34.915071 21602 net.cpp:408] fc2_cls <- fc2
I0702 21:39:34.915094 21602 net.cpp:382] fc2_cls -> fc2_cls
I0702 21:39:34.915412 21602 net.cpp:124] Setting up fc2_cls
I0702 21:39:34.915439 21602 net.cpp:131] Top shape: 28 2 (56)
I0702 21:39:34.915455 21602 net.cpp:139] Memory required for data: 17547600
I0702 21:39:34.915477 21602 layer_factory.hpp:77] Creating layer acc_cls
I0702 21:39:34.915496 21602 net.cpp:86] Creating Layer acc_cls
I0702 21:39:34.915513 21602 net.cpp:408] acc_cls <- fc2_cls
I0702 21:39:34.915530 21602 net.cpp:408] acc_cls <- all_cls_label
I0702 21:39:34.915549 21602 net.cpp:382] acc_cls -> acc_cls
…
